…
2023-07-11 15:53:02,239 INFO: Dataset [PairedImageDataset] - Urban100 is built.
2023-07-11 15:53:02,239 INFO: Number of test images in Urban100: 100
2023-07-11 15:53:02,244 INFO: Dataset [PairedImageDataset] - Manga109 is built.
2023-07-11 15:53:02,244 INFO: Number of test images in Manga109: 109
2023-07-11 15:53:02,248 INFO: Dataset [PairedImageDataset] - BSDS100 is built.
2023-07-11 15:53:02,248 INFO: Number of test images in BSDS100: 100
2023-07-11 15:53:02,272 INFO: Network [MDRN] is created.
2023-07-11 15:53:03,342 INFO: Network: MDRN, with parameters: 303,724
2023-07-11 15:53:03,342 INFO: MDRN(
  (fea_conv): Conv2d(3, 56, kernel_size=(3, 3), stride=(1, 1), padding=same)
  (B1): EADB(
    (c1_d): Conv2d(56, 28, kernel_size=(1, 1), stride=(1, 1))
    (c1_r): BSConvU(
      (pw): Conv2d(56, 56, kernel_size=(1, 1), stride=(1, 1), bias=False)
      (dw): Conv2d(56, 56, kernel_size=(3, 3), stride=(1, 1), padding=(1, 1), groups=56, padding_mode=reflect)
    )
    (c2_d): Conv2d(56, 28, kernel_size=(1, 1), stride=(1, 1))
    (c2_r): BSConvU(
      (pw): Conv2d(56, 56, kernel_size=(1, 1), stride=(1, 1), bias=False)
      (dw): Conv2d(56, 56, kernel_size=(3, 3), stride=(1, 1), padding=(1, 1), groups=56, padding_mode=reflect)
    )
    (c3_d): Conv2d(56, 28, kernel_size=(1, 1), stride=(1, 1))
    (c3_r): BSConvU(
      (pw): Conv2d(56, 56, kernel_size=(1, 1), stride=(1, 1), bias=False)
      (dw): Conv2d(56, 56, kernel_size=(3, 3), stride=(1, 1), padding=(1, 1), groups=56, padding_mode=reflect)
    )
    (c4): BSConvU(
      (pw): Conv2d(56, 28, kernel_size=(1, 1), stride=(1, 1), bias=False)
      (dw): Conv2d(28, 28, kernel_size=(3, 3), stride=(1, 1), padding=(1, 1), groups=28, padding_mode=reflect)
    )
    (act): GELU()
    (c5): Conv2d(112, 56, kernel_size=(1, 1), stride=(1, 1))
    (esa): MDSA(
      (body): Sequential(
        (0): ESA(
          (conv1): Conv2d(56, 14, kernel_size=(1, 1), stride=(1, 1))
          (conv_f): Conv2d(14, 14, kernel_size=(1, 1), stride=(1, 1))
          (conv2_0): BSConvU(
            (pw): Conv2d(14, 14, kernel_size=(1, 1), stride=(1, 1), bias=False)
            (dw): Conv2d(14, 14, kernel_size=(3, 3), stride=(2, 2), padding=(1, 1), groups=14, padding_mode=reflect)
          )
          (conv2_1): BSConvU(
            (pw): Conv2d(14, 14, kernel_size=(1, 1), stride=(1, 1), bias=False)
            (dw): Conv2d(14, 14, kernel_size=(3, 3), stride=(2, 2), padding=(1, 1), groups=14, padding_mode=reflect)
          )
          (conv2_2): BSConvU(
            (pw): Conv2d(14, 14, kernel_size=(1, 1), stride=(1, 1), bias=False)
            (dw): Conv2d(14, 14, kernel_size=(3, 3), stride=(2, 2), padding=(1, 1), groups=14, padding_mode=reflect)
          )
          (conv2_3): BSConvU(
            (pw): Conv2d(14, 14, kernel_size=(1, 1), stride=(1, 1), bias=False)
            (dw): Conv2d(14, 14, kernel_size=(3, 3), stride=(2, 2), padding=(1, 1), groups=14, padding_mode=reflect)
          )
          (maxPooling_0): MaxPool2d(kernel_size=3, stride=3, padding=1, dilation=1, ceil_mode=False)
          (maxPooling_1): MaxPool2d(kernel_size=5, stride=3, padding=0, dilation=1, ceil_mode=False)
          (maxPooling_2): MaxPool2d(kernel_size=7, stride=3, padding=1, dilation=1, ceil_mode=False)
          (conv_max_0): BSConvU(
            (pw): Conv2d(14, 14, kernel_size=(1, 1), stride=(1, 1), bias=False)
            (dw): Conv2d(14, 14, kernel_size=(3, 3), stride=(1, 1), padding=(1, 1), groups=14, padding_mode=reflect)
          )
          (conv_max_1): BSConvU(
            (pw): Conv2d(14, 14, kernel_size=(1, 1), stride=(1, 1), bias=False)
            (dw): Conv2d(14, 14, kernel_size=(3, 3), stride=(1, 1), padding=(1, 1), groups=14, padding_mode=reflect)
          )
          (conv_max_2): BSConvU(
            (pw): Conv2d(14, 14, kernel_size=(1, 1), stride=(1, 1), bias=False)
            (dw): Conv2d(14, 14, kernel_size=(3, 3), stride=(1, 1), padding=(1, 1), groups=14, padding_mode=reflect)
          )
          (conv3_0): BSConvU(
            (pw): Conv2d(14, 14, kernel_size=(1, 1), stride=(1, 1), bias=False)
            (dw): Conv2d(14, 14, kernel_size=(3, 3), stride=(1, 1), padding=(1, 1), groups=14, padding_mode=reflect)
          )
          (conv3_1): BSConvU(
            (pw): Conv2d(14, 14, kernel_size=(1, 1), stride=(1, 1), bias=False)
            (dw): Conv2d(14, 14, kernel_size=(3, 3), stride=(1, 1), padding=(1, 1), groups=14, padding_mode=reflect)
          )
          (conv3_2): BSConvU(
            (pw): Conv2d(14, 14, kernel_size=(1, 1), stride=(1, 1), bias=False)
            (dw): Conv2d(14, 14, kernel_size=(3, 3), stride=(1, 1), padding=(1, 1), groups=14, padding_mode=reflect)
          )
          (conv4): Conv2d(14, 56, kernel_size=(1, 1), stride=(1, 1))
          (sigmoid): Sigmoid()
          (GELU): GELU()
        )
      )
    )
    (cca): ECCA(
      (body): Sequential(
        (0): Conv2d(56, 56, kernel_size=(1, 1), stride=(1, 1), padding=same)
        (1): GELU()
        (2): CCALayer(
          (avg_pool): AdaptiveAvgPool2d(output_size=1)
          (conv_du): Sequential(
            (0): Conv2d(56, 3, kernel_size=(1, 1), stride=(1, 1))
            (1): ReLU(inplace=True)
            (2): Conv2d(3, 56, kernel_size=(1, 1), stride=(1, 1))
            (3): Sigmoid()
          )
        )
        (3): Conv2d(56, 56, kernel_size=(3, 3), stride=(1, 1), padding=same, groups=56)
      )
    )
  )
  (B2): EADB(
    (c1_d): Conv2d(56, 28, kernel_size=(1, 1), stride=(1, 1))
    (c1_r): BSConvU(
      (pw): Conv2d(56, 56, kernel_size=(1, 1), stride=(1, 1), bias=False)
      (dw): Conv2d(56, 56, kernel_size=(3, 3), stride=(1, 1), padding=(1, 1), groups=56, padding_mode=reflect)
    )
    (c2_d): Conv2d(56, 28, kernel_size=(1, 1), stride=(1, 1))
    (c2_r): BSConvU(
      (pw): Conv2d(56, 56, kernel_size=(1, 1), stride=(1, 1), bias=False)
      (dw): Conv2d(56, 56, kernel_size=(3, 3), stride=(1, 1), padding=(1, 1), groups=56, padding_mode=reflect)
    )
    (c3_d): Conv2d(56, 28, kernel_size=(1, 1), stride=(1, 1))
    (c3_r): BSConvU(
      (pw): Conv2d(56, 56, kernel_size=(1, 1), stride=(1, 1), bias=False)
      (dw): Conv2d(56, 56, kernel_size=(3, 3), stride=(1, 1), padding=(1, 1), groups=56, padding_mode=reflect)
    )
    (c4): BSConvU(
      (pw): Conv2d(56, 28, kernel_size=(1, 1), stride=(1, 1), bias=False)
      (dw): Conv2d(28, 28, kernel_size=(3, 3), stride=(1, 1), padding=(1, 1), groups=28, padding_mode=reflect)
    )
    (act): GELU()
    (c5): Conv2d(112, 56, kernel_size=(1, 1), stride=(1, 1))
    (esa): MDSA(
      (body): Sequential(
        (0): ESA(
          (conv1): Conv2d(56, 14, kernel_size=(1, 1), stride=(1, 1))
          (conv_f): Conv2d(14, 14, kernel_size=(1, 1), stride=(1, 1))
          (conv2_0): BSConvU(
            (pw): Conv2d(14, 14, kernel_size=(1, 1), stride=(1, 1), bias=False)
            (dw): Conv2d(14, 14, kernel_size=(3, 3), stride=(2, 2), padding=(1, 1), groups=14, padding_mode=reflect)
          )
          (conv2_1): BSConvU(
            (pw): Conv2d(14, 14, kernel_size=(1, 1), stride=(1, 1), bias=False)
            (dw): Conv2d(14, 14, kernel_size=(3, 3), stride=(2, 2), padding=(1, 1), groups=14, padding_mode=reflect)
          )
          (conv2_2): BSConvU(
            (pw): Conv2d(14, 14, kernel_size=(1, 1), stride=(1, 1), bias=False)
            (dw): Conv2d(14, 14, kernel_size=(3, 3), stride=(2, 2), padding=(1, 1), groups=14, padding_mode=reflect)
          )
          (conv2_3): BSConvU(
            (pw): Conv2d(14, 14, kernel_size=(1, 1), stride=(1, 1), bias=False)
            (dw): Conv2d(14, 14, kernel_size=(3, 3), stride=(2, 2), padding=(1, 1), groups=14, padding_mode=reflect)
          )
          (maxPooling_0): MaxPool2d(kernel_size=3, stride=3, padding=1, dilation=1, ceil_mode=False)
          (maxPooling_1): MaxPool2d(kernel_size=5, stride=3, padding=0, dilation=1, ceil_mode=False)
          (maxPooling_2): MaxPool2d(kernel_size=7, stride=3, padding=1, dilation=1, ceil_mode=False)
          (conv_max_0): BSConvU(
            (pw): Conv2d(14, 14, kernel_size=(1, 1), stride=(1, 1), bias=False)
            (dw): Conv2d(14, 14, kernel_size=(3, 3), stride=(1, 1), padding=(1, 1), groups=14, padding_mode=reflect)
          )
          (conv_max_1): BSConvU(
            (pw): Conv2d(14, 14, kernel_size=(1, 1), stride=(1, 1), bias=False)
            (dw): Conv2d(14, 14, kernel_size=(3, 3), stride=(1, 1), padding=(1, 1), groups=14, padding_mode=reflect)
          )
          (conv_max_2): BSConvU(
            (pw): Conv2d(14, 14, kernel_size=(1, 1), stride=(1, 1), bias=False)
            (dw): Conv2d(14, 14, kernel_size=(3, 3), stride=(1, 1), padding=(1, 1), groups=14, padding_mode=reflect)
          )
          (conv3_0): BSConvU(
            (pw): Conv2d(14, 14, kernel_size=(1, 1), stride=(1, 1), bias=False)
            (dw): Conv2d(14, 14, kernel_size=(3, 3), stride=(1, 1), padding=(1, 1), groups=14, padding_mode=reflect)
          )
          (conv3_1): BSConvU(
            (pw): Conv2d(14, 14, kernel_size=(1, 1), stride=(1, 1), bias=False)
            (dw): Conv2d(14, 14, kernel_size=(3, 3), stride=(1, 1), padding=(1, 1), groups=14, padding_mode=reflect)
          )
          (conv3_2): BSConvU(
            (pw): Conv2d(14, 14, kernel_size=(1, 1), stride=(1, 1), bias=False)
            (dw): Conv2d(14, 14, kernel_size=(3, 3), stride=(1, 1), padding=(1, 1), groups=14, padding_mode=reflect)
          )
          (conv4): Conv2d(14, 56, kernel_size=(1, 1), stride=(1, 1))
          (sigmoid): Sigmoid()
          (GELU): GELU()
        )
      )
    )
    (cca): ECCA(
      (body): Sequential(
        (0): Conv2d(56, 56, kernel_size=(1, 1), stride=(1, 1), padding=same)
        (1): GELU()
        (2): CCALayer(
          (avg_pool): AdaptiveAvgPool2d(output_size=1)
          (conv_du): Sequential(
            (0): Conv2d(56, 3, kernel_size=(1, 1), stride=(1, 1))
            (1): ReLU(inplace=True)
            (2): Conv2d(3, 56, kernel_size=(1, 1), stride=(1, 1))
            (3): Sigmoid()
          )
        )
        (3): Conv2d(56, 56, kernel_size=(3, 3), stride=(1, 1), padding=same, groups=56)
      )
    )
  )
  (B3): EADB(
    (c1_d): Conv2d(56, 28, kernel_size=(1, 1), stride=(1, 1))
    (c1_r): BSConvU(
      (pw): Conv2d(56, 56, kernel_size=(1, 1), stride=(1, 1), bias=False)
      (dw): Conv2d(56, 56, kernel_size=(3, 3), stride=(1, 1), padding=(1, 1), groups=56, padding_mode=reflect)
    )
    (c2_d): Conv2d(56, 28, kernel_size=(1, 1), stride=(1, 1))
    (c2_r): BSConvU(
      (pw): Conv2d(56, 56, kernel_size=(1, 1), stride=(1, 1), bias=False)
      (dw): Conv2d(56, 56, kernel_size=(3, 3), stride=(1, 1), padding=(1, 1), groups=56, padding_mode=reflect)
    )
    (c3_d): Conv2d(56, 28, kernel_size=(1, 1), stride=(1, 1))
    (c3_r): BSConvU(
      (pw): Conv2d(56, 56, kernel_size=(1, 1), stride=(1, 1), bias=False)
      (dw): Conv2d(56, 56, kernel_size=(3, 3), stride=(1, 1), padding=(1, 1), groups=56, padding_mode=reflect)
    )
    (c4): BSConvU(
      (pw): Conv2d(56, 28, kernel_size=(1, 1), stride=(1, 1), bias=False)
      (dw): Conv2d(28, 28, kernel_size=(3, 3), stride=(1, 1), padding=(1, 1), groups=28, padding_mode=reflect)
    )
    (act): GELU()
    (c5): Conv2d(112, 56, kernel_size=(1, 1), stride=(1, 1))
    (esa): MDSA(
      (body): Sequential(
        (0): ESA(
          (conv1): Conv2d(56, 14, kernel_size=(1, 1), stride=(1, 1))
          (conv_f): Conv2d(14, 14, kernel_size=(1, 1), stride=(1, 1))
          (conv2_0): BSConvU(
            (pw): Conv2d(14, 14, kernel_size=(1, 1), stride=(1, 1), bias=False)
            (dw): Conv2d(14, 14, kernel_size=(3, 3), stride=(2, 2), padding=(1, 1), groups=14, padding_mode=reflect)
          )
          (conv2_1): BSConvU(
            (pw): Conv2d(14, 14, kernel_size=(1, 1), stride=(1, 1), bias=False)
            (dw): Conv2d(14, 14, kernel_size=(3, 3), stride=(2, 2), padding=(1, 1), groups=14, padding_mode=reflect)
          )
          (conv2_2): BSConvU(
            (pw): Conv2d(14, 14, kernel_size=(1, 1), stride=(1, 1), bias=False)
            (dw): Conv2d(14, 14, kernel_size=(3, 3), stride=(2, 2), padding=(1, 1), groups=14, padding_mode=reflect)
          )
          (conv2_3): BSConvU(
            (pw): Conv2d(14, 14, kernel_size=(1, 1), stride=(1, 1), bias=False)
            (dw): Conv2d(14, 14, kernel_size=(3, 3), stride=(2, 2), padding=(1, 1), groups=14, padding_mode=reflect)
          )
          (maxPooling_0): MaxPool2d(kernel_size=3, stride=3, padding=1, dilation=1, ceil_mode=False)
          (maxPooling_1): MaxPool2d(kernel_size=5, stride=3, padding=0, dilation=1, ceil_mode=False)
          (maxPooling_2): MaxPool2d(kernel_size=7, stride=3, padding=1, dilation=1, ceil_mode=False)
          (conv_max_0): BSConvU(
            (pw): Conv2d(14, 14, kernel_size=(1, 1), stride=(1, 1), bias=False)
            (dw): Conv2d(14, 14, kernel_size=(3, 3), stride=(1, 1), padding=(1, 1), groups=14, padding_mode=reflect)
          )
          (conv_max_1): BSConvU(
            (pw): Conv2d(14, 14, kernel_size=(1, 1), stride=(1, 1), bias=False)
            (dw): Conv2d(14, 14, kernel_size=(3, 3), stride=(1, 1), padding=(1, 1), groups=14, padding_mode=reflect)
          )
          (conv_max_2): BSConvU(
            (pw): Conv2d(14, 14, kernel_size=(1, 1), stride=(1, 1), bias=False)
            (dw): Conv2d(14, 14, kernel_size=(3, 3), stride=(1, 1), padding=(1, 1), groups=14, padding_mode=reflect)
          )
          (conv3_0): BSConvU(
            (pw): Conv2d(14, 14, kernel_size=(1, 1), stride=(1, 1), bias=False)
            (dw): Conv2d(14, 14, kernel_size=(3, 3), stride=(1, 1), padding=(1, 1), groups=14, padding_mode=reflect)
          )
          (conv3_1): BSConvU(
            (pw): Conv2d(14, 14, kernel_size=(1, 1), stride=(1, 1), bias=False)
            (dw): Conv2d(14, 14, kernel_size=(3, 3), stride=(1, 1), padding=(1, 1), groups=14, padding_mode=reflect)
          )
          (conv3_2): BSConvU(
            (pw): Conv2d(14, 14, kernel_size=(1, 1), stride=(1, 1), bias=False)
            (dw): Conv2d(14, 14, kernel_size=(3, 3), stride=(1, 1), padding=(1, 1), groups=14, padding_mode=reflect)
          )
          (conv4): Conv2d(14, 56, kernel_size=(1, 1), stride=(1, 1))
          (sigmoid): Sigmoid()
          (GELU): GELU()
        )
      )
    )
    (cca): ECCA(
      (body): Sequential(
        (0): Conv2d(56, 56, kernel_size=(1, 1), stride=(1, 1), padding=same)
        (1): GELU()
        (2): CCALayer(
          (avg_pool): AdaptiveAvgPool2d(output_size=1)
          (conv_du): Sequential(
            (0): Conv2d(56, 3, kernel_size=(1, 1), stride=(1, 1))
            (1): ReLU(inplace=True)
            (2): Conv2d(3, 56, kernel_size=(1, 1), stride=(1, 1))
            (3): Sigmoid()
          )
        )
        (3): Conv2d(56, 56, kernel_size=(3, 3), stride=(1, 1), padding=same, groups=56)
      )
    )
  )
  (B4): EADB(
    (c1_d): Conv2d(56, 28, kernel_size=(1, 1), stride=(1, 1))
    (c1_r): BSConvU(
      (pw): Conv2d(56, 56, kernel_size=(1, 1), stride=(1, 1), bias=False)
      (dw): Conv2d(56, 56, kernel_size=(3, 3), stride=(1, 1), padding=(1, 1), groups=56, padding_mode=reflect)
    )
    (c2_d): Conv2d(56, 28, kernel_size=(1, 1), stride=(1, 1))
    (c2_r): BSConvU(
      (pw): Conv2d(56, 56, kernel_size=(1, 1), stride=(1, 1), bias=False)
      (dw): Conv2d(56, 56, kernel_size=(3, 3), stride=(1, 1), padding=(1, 1), groups=56, padding_mode=reflect)
    )
    (c3_d): Conv2d(56, 28, kernel_size=(1, 1), stride=(1, 1))
    (c3_r): BSConvU(
      (pw): Conv2d(56, 56, kernel_size=(1, 1), stride=(1, 1), bias=False)
      (dw): Conv2d(56, 56, kernel_size=(3, 3), stride=(1, 1), padding=(1, 1), groups=56, padding_mode=reflect)
    )
    (c4): BSConvU(
      (pw): Conv2d(56, 28, kernel_size=(1, 1), stride=(1, 1), bias=False)
      (dw): Conv2d(28, 28, kernel_size=(3, 3), stride=(1, 1), padding=(1, 1), groups=28, padding_mode=reflect)
    )
    (act): GELU()
    (c5): Conv2d(112, 56, kernel_size=(1, 1), stride=(1, 1))
    (esa): MDSA(
      (body): Sequential(
        (0): ESA(
          (conv1): Conv2d(56, 14, kernel_size=(1, 1), stride=(1, 1))
          (conv_f): Conv2d(14, 14, kernel_size=(1, 1), stride=(1, 1))
          (conv2_0): BSConvU(
            (pw): Conv2d(14, 14, kernel_size=(1, 1), stride=(1, 1), bias=False)
            (dw): Conv2d(14, 14, kernel_size=(3, 3), stride=(2, 2), padding=(1, 1), groups=14, padding_mode=reflect)
          )
          (conv2_1): BSConvU(
            (pw): Conv2d(14, 14, kernel_size=(1, 1), stride=(1, 1), bias=False)
            (dw): Conv2d(14, 14, kernel_size=(3, 3), stride=(2, 2), padding=(1, 1), groups=14, padding_mode=reflect)
          )
          (conv2_2): BSConvU(
            (pw): Conv2d(14, 14, kernel_size=(1, 1), stride=(1, 1), bias=False)
            (dw): Conv2d(14, 14, kernel_size=(3, 3), stride=(2, 2), padding=(1, 1), groups=14, padding_mode=reflect)
          )
          (conv2_3): BSConvU(
            (pw): Conv2d(14, 14, kernel_size=(1, 1), stride=(1, 1), bias=False)
            (dw): Conv2d(14, 14, kernel_size=(3, 3), stride=(2, 2), padding=(1, 1), groups=14, padding_mode=reflect)
          )
          (maxPooling_0): MaxPool2d(kernel_size=3, stride=3, padding=1, dilation=1, ceil_mode=False)
          (maxPooling_1): MaxPool2d(kernel_size=5, stride=3, padding=0, dilation=1, ceil_mode=False)
          (maxPooling_2): MaxPool2d(kernel_size=7, stride=3, padding=1, dilation=1, ceil_mode=False)
          (conv_max_0): BSConvU(
            (pw): Conv2d(14, 14, kernel_size=(1, 1), stride=(1, 1), bias=False)
            (dw): Conv2d(14, 14, kernel_size=(3, 3), stride=(1, 1), padding=(1, 1), groups=14, padding_mode=reflect)
          )
          (conv_max_1): BSConvU(
            (pw): Conv2d(14, 14, kernel_size=(1, 1), stride=(1, 1), bias=False)
            (dw): Conv2d(14, 14, kernel_size=(3, 3), stride=(1, 1), padding=(1, 1), groups=14, padding_mode=reflect)
          )
          (conv_max_2): BSConvU(
            (pw): Conv2d(14, 14, kernel_size=(1, 1), stride=(1, 1), bias=False)
            (dw): Conv2d(14, 14, kernel_size=(3, 3), stride=(1, 1), padding=(1, 1), groups=14, padding_mode=reflect)
          )
          (conv3_0): BSConvU(
            (pw): Conv2d(14, 14, kernel_size=(1, 1), stride=(1, 1), bias=False)
            (dw): Conv2d(14, 14, kernel_size=(3, 3), stride=(1, 1), padding=(1, 1), groups=14, padding_mode=reflect)
          )
          (conv3_1): BSConvU(
            (pw): Conv2d(14, 14, kernel_size=(1, 1), stride=(1, 1), bias=False)
            (dw): Conv2d(14, 14, kernel_size=(3, 3), stride=(1, 1), padding=(1, 1), groups=14, padding_mode=reflect)
          )
          (conv3_2): BSConvU(
            (pw): Conv2d(14, 14, kernel_size=(1, 1), stride=(1, 1), bias=False)
            (dw): Conv2d(14, 14, kernel_size=(3, 3), stride=(1, 1), padding=(1, 1), groups=14, padding_mode=reflect)
          )
          (conv4): Conv2d(14, 56, kernel_size=(1, 1), stride=(1, 1))
          (sigmoid): Sigmoid()
          (GELU): GELU()
        )
      )
    )
    (cca): ECCA(
      (body): Sequential(
        (0): Conv2d(56, 56, kernel_size=(1, 1), stride=(1, 1), padding=same)
        (1): GELU()
        (2): CCALayer(
          (avg_pool): AdaptiveAvgPool2d(output_size=1)
          (conv_du): Sequential(
            (0): Conv2d(56, 3, kernel_size=(1, 1), stride=(1, 1))
            (1): ReLU(inplace=True)
            (2): Conv2d(3, 56, kernel_size=(1, 1), stride=(1, 1))
            (3): Sigmoid()
          )
        )
        (3): Conv2d(56, 56, kernel_size=(3, 3), stride=(1, 1), padding=same, groups=56)
      )
    )
  )
  (B5): EADB(
    (c1_d): Conv2d(56, 28, kernel_size=(1, 1), stride=(1, 1))
    (c1_r): BSConvU(
      (pw): Conv2d(56, 56, kernel_size=(1, 1), stride=(1, 1), bias=False)
      (dw): Conv2d(56, 56, kernel_size=(3, 3), stride=(1, 1), padding=(1, 1), groups=56, padding_mode=reflect)
    )
    (c2_d): Conv2d(56, 28, kernel_size=(1, 1), stride=(1, 1))
    (c2_r): BSConvU(
      (pw): Conv2d(56, 56, kernel_size=(1, 1), stride=(1, 1), bias=False)
      (dw): Conv2d(56, 56, kernel_size=(3, 3), stride=(1, 1), padding=(1, 1), groups=56, padding_mode=reflect)
    )
    (c3_d): Conv2d(56, 28, kernel_size=(1, 1), stride=(1, 1))
    (c3_r): BSConvU(
      (pw): Conv2d(56, 56, kernel_size=(1, 1), stride=(1, 1), bias=False)
      (dw): Conv2d(56, 56, kernel_size=(3, 3), stride=(1, 1), padding=(1, 1), groups=56, padding_mode=reflect)
    )
    (c4): BSConvU(
      (pw): Conv2d(56, 28, kernel_size=(1, 1), stride=(1, 1), bias=False)
      (dw): Conv2d(28, 28, kernel_size=(3, 3), stride=(1, 1), padding=(1, 1), groups=28, padding_mode=reflect)
    )
    (act): GELU()
    (c5): Conv2d(112, 56, kernel_size=(1, 1), stride=(1, 1))
    (esa): MDSA(
      (body): Sequential(
        (0): ESA(
          (conv1): Conv2d(56, 14, kernel_size=(1, 1), stride=(1, 1))
          (conv_f): Conv2d(14, 14, kernel_size=(1, 1), stride=(1, 1))
          (conv2_0): BSConvU(
            (pw): Conv2d(14, 14, kernel_size=(1, 1), stride=(1, 1), bias=False)
            (dw): Conv2d(14, 14, kernel_size=(3, 3), stride=(2, 2), padding=(1, 1), groups=14, padding_mode=reflect)
          )
          (conv2_1): BSConvU(
            (pw): Conv2d(14, 14, kernel_size=(1, 1), stride=(1, 1), bias=False)
            (dw): Conv2d(14, 14, kernel_size=(3, 3), stride=(2, 2), padding=(1, 1), groups=14, padding_mode=reflect)
          )
          (conv2_2): BSConvU(
            (pw): Conv2d(14, 14, kernel_size=(1, 1), stride=(1, 1), bias=False)
            (dw): Conv2d(14, 14, kernel_size=(3, 3), stride=(2, 2), padding=(1, 1), groups=14, padding_mode=reflect)
          )
          (conv2_3): BSConvU(
            (pw): Conv2d(14, 14, kernel_size=(1, 1), stride=(1, 1), bias=False)
            (dw): Conv2d(14, 14, kernel_size=(3, 3), stride=(2, 2), padding=(1, 1), groups=14, padding_mode=reflect)
          )
          (maxPooling_0): MaxPool2d(kernel_size=3, stride=3, padding=1, dilation=1, ceil_mode=False)
          (maxPooling_1): MaxPool2d(kernel_size=5, stride=3, padding=0, dilation=1, ceil_mode=False)
          (maxPooling_2): MaxPool2d(kernel_size=7, stride=3, padding=1, dilation=1, ceil_mode=False)
          (conv_max_0): BSConvU(
            (pw): Conv2d(14, 14, kernel_size=(1, 1), stride=(1, 1), bias=False)
            (dw): Conv2d(14, 14, kernel_size=(3, 3), stride=(1, 1), padding=(1, 1), groups=14, padding_mode=reflect)
          )
          (conv_max_1): BSConvU(
            (pw): Conv2d(14, 14, kernel_size=(1, 1), stride=(1, 1), bias=False)
            (dw): Conv2d(14, 14, kernel_size=(3, 3), stride=(1, 1), padding=(1, 1), groups=14, padding_mode=reflect)
          )
          (conv_max_2): BSConvU(
            (pw): Conv2d(14, 14, kernel_size=(1, 1), stride=(1, 1), bias=False)
            (dw): Conv2d(14, 14, kernel_size=(3, 3), stride=(1, 1), padding=(1, 1), groups=14, padding_mode=reflect)
          )
          (conv3_0): BSConvU(
            (pw): Conv2d(14, 14, kernel_size=(1, 1), stride=(1, 1), bias=False)
            (dw): Conv2d(14, 14, kernel_size=(3, 3), stride=(1, 1), padding=(1, 1), groups=14, padding_mode=reflect)
          )
          (conv3_1): BSConvU(
            (pw): Conv2d(14, 14, kernel_size=(1, 1), stride=(1, 1), bias=False)
            (dw): Conv2d(14, 14, kernel_size=(3, 3), stride=(1, 1), padding=(1, 1), groups=14, padding_mode=reflect)
          )
          (conv3_2): BSConvU(
            (pw): Conv2d(14, 14, kernel_size=(1, 1), stride=(1, 1), bias=False)
            (dw): Conv2d(14, 14, kernel_size=(3, 3), stride=(1, 1), padding=(1, 1), groups=14, padding_mode=reflect)
          )
          (conv4): Conv2d(14, 56, kernel_size=(1, 1), stride=(1, 1))
          (sigmoid): Sigmoid()
          (GELU): GELU()
        )
      )
    )
    (cca): ECCA(
      (body): Sequential(
        (0): Conv2d(56, 56, kernel_size=(1, 1), stride=(1, 1), padding=same)
        (1): GELU()
        (2): CCALayer(
          (avg_pool): AdaptiveAvgPool2d(output_size=1)
          (conv_du): Sequential(
            (0): Conv2d(56, 3, kernel_size=(1, 1), stride=(1, 1))
            (1): ReLU(inplace=True)
            (2): Conv2d(3, 56, kernel_size=(1, 1), stride=(1, 1))
            (3): Sigmoid()
          )
        )
        (3): Conv2d(56, 56, kernel_size=(3, 3), stride=(1, 1), padding=same, groups=56)
      )
    )
  )
  (B6): EADB(
    (c1_d): Conv2d(56, 28, kernel_size=(1, 1), stride=(1, 1))
    (c1_r): BSConvU(
      (pw): Conv2d(56, 56, kernel_size=(1, 1), stride=(1, 1), bias=False)
      (dw): Conv2d(56, 56, kernel_size=(3, 3), stride=(1, 1), padding=(1, 1), groups=56, padding_mode=reflect)
    )
    (c2_d): Conv2d(56, 28, kernel_size=(1, 1), stride=(1, 1))
    (c2_r): BSConvU(
      (pw): Conv2d(56, 56, kernel_size=(1, 1), stride=(1, 1), bias=False)
      (dw): Conv2d(56, 56, kernel_size=(3, 3), stride=(1, 1), padding=(1, 1), groups=56, padding_mode=reflect)
    )
    (c3_d): Conv2d(56, 28, kernel_size=(1, 1), stride=(1, 1))
    (c3_r): BSConvU(
      (pw): Conv2d(56, 56, kernel_size=(1, 1), stride=(1, 1), bias=False)
      (dw): Conv2d(56, 56, kernel_size=(3, 3), stride=(1, 1), padding=(1, 1), groups=56, padding_mode=reflect)
    )
    (c4): BSConvU(
      (pw): Conv2d(56, 28, kernel_size=(1, 1), stride=(1, 1), bias=False)
      (dw): Conv2d(28, 28, kernel_size=(3, 3), stride=(1, 1), padding=(1, 1), groups=28, padding_mode=reflect)
    )
    (act): GELU()
    (c5): Conv2d(112, 56, kernel_size=(1, 1), stride=(1, 1))
    (esa): MDSA(
      (body): Sequential(
        (0): ESA(
          (conv1): Conv2d(56, 14, kernel_size=(1, 1), stride=(1, 1))
          (conv_f): Conv2d(14, 14, kernel_size=(1, 1), stride=(1, 1))
          (conv2_0): BSConvU(
            (pw): Conv2d(14, 14, kernel_size=(1, 1), stride=(1, 1), bias=False)
            (dw): Conv2d(14, 14, kernel_size=(3, 3), stride=(2, 2), padding=(1, 1), groups=14, padding_mode=reflect)
          )
          (conv2_1): BSConvU(
            (pw): Conv2d(14, 14, kernel_size=(1, 1), stride=(1, 1), bias=False)
            (dw): Conv2d(14, 14, kernel_size=(3, 3), stride=(2, 2), padding=(1, 1), groups=14, padding_mode=reflect)
          )
          (conv2_2): BSConvU(
            (pw): Conv2d(14, 14, kernel_size=(1, 1), stride=(1, 1), bias=False)
            (dw): Conv2d(14, 14, kernel_size=(3, 3), stride=(2, 2), padding=(1, 1), groups=14, padding_mode=reflect)
          )
          (conv2_3): BSConvU(
            (pw): Conv2d(14, 14, kernel_size=(1, 1), stride=(1, 1), bias=False)
            (dw): Conv2d(14, 14, kernel_size=(3, 3), stride=(2, 2), padding=(1, 1), groups=14, padding_mode=reflect)
          )
          (maxPooling_0): MaxPool2d(kernel_size=3, stride=3, padding=1, dilation=1, ceil_mode=False)
          (maxPooling_1): MaxPool2d(kernel_size=5, stride=3, padding=0, dilation=1, ceil_mode=False)
          (maxPooling_2): MaxPool2d(kernel_size=7, stride=3, padding=1, dilation=1, ceil_mode=False)
          (conv_max_0): BSConvU(
            (pw): Conv2d(14, 14, kernel_size=(1, 1), stride=(1, 1), bias=False)
            (dw): Conv2d(14, 14, kernel_size=(3, 3), stride=(1, 1), padding=(1, 1), groups=14, padding_mode=reflect)
          )
          (conv_max_1): BSConvU(
            (pw): Conv2d(14, 14, kernel_size=(1, 1), stride=(1, 1), bias=False)
            (dw): Conv2d(14, 14, kernel_size=(3, 3), stride=(1, 1), padding=(1, 1), groups=14, padding_mode=reflect)
          )
          (conv_max_2): BSConvU(
            (pw): Conv2d(14, 14, kernel_size=(1, 1), stride=(1, 1), bias=False)
            (dw): Conv2d(14, 14, kernel_size=(3, 3), stride=(1, 1), padding=(1, 1), groups=14, padding_mode=reflect)
          )
          (conv3_0): BSConvU(
            (pw): Conv2d(14, 14, kernel_size=(1, 1), stride=(1, 1), bias=False)
            (dw): Conv2d(14, 14, kernel_size=(3, 3), stride=(1, 1), padding=(1, 1), groups=14, padding_mode=reflect)
          )
          (conv3_1): BSConvU(
            (pw): Conv2d(14, 14, kernel_size=(1, 1), stride=(1, 1), bias=False)
            (dw): Conv2d(14, 14, kernel_size=(3, 3), stride=(1, 1), padding=(1, 1), groups=14, padding_mode=reflect)
          )
          (conv3_2): BSConvU(
            (pw): Conv2d(14, 14, kernel_size=(1, 1), stride=(1, 1), bias=False)
            (dw): Conv2d(14, 14, kernel_size=(3, 3), stride=(1, 1), padding=(1, 1), groups=14, padding_mode=reflect)
          )
          (conv4): Conv2d(14, 56, kernel_size=(1, 1), stride=(1, 1))
          (sigmoid): Sigmoid()
          (GELU): GELU()
        )
      )
    )
    (cca): ECCA(
      (body): Sequential(
        (0): Conv2d(56, 56, kernel_size=(1, 1), stride=(1, 1), padding=same)
        (1): GELU()
        (2): CCALayer(
          (avg_pool): AdaptiveAvgPool2d(output_size=1)
          (conv_du): Sequential(
            (0): Conv2d(56, 3, kernel_size=(1, 1), stride=(1, 1))
            (1): ReLU(inplace=True)
            (2): Conv2d(3, 56, kernel_size=(1, 1), stride=(1, 1))
            (3): Sigmoid()
          )
        )
        (3): Conv2d(56, 56, kernel_size=(3, 3), stride=(1, 1), padding=same, groups=56)
      )
    )
  )
  (B7): EADB(
    (c1_d): Conv2d(56, 28, kernel_size=(1, 1), stride=(1, 1))
    (c1_r): BSConvU(
      (pw): Conv2d(56, 56, kernel_size=(1, 1), stride=(1, 1), bias=False)
      (dw): Conv2d(56, 56, kernel_size=(3, 3), stride=(1, 1), padding=(1, 1), groups=56, padding_mode=reflect)
    )
    (c2_d): Conv2d(56, 28, kernel_size=(1, 1), stride=(1, 1))
    (c2_r): BSConvU(
      (pw): Conv2d(56, 56, kernel_size=(1, 1), stride=(1, 1), bias=False)
      (dw): Conv2d(56, 56, kernel_size=(3, 3), stride=(1, 1), padding=(1, 1), groups=56, padding_mode=reflect)
    )
    (c3_d): Conv2d(56, 28, kernel_size=(1, 1), stride=(1, 1))
    (c3_r): BSConvU(
      (pw): Conv2d(56, 56, kernel_size=(1, 1), stride=(1, 1), bias=False)
      (dw): Conv2d(56, 56, kernel_size=(3, 3), stride=(1, 1), padding=(1, 1), groups=56, padding_mode=reflect)
    )
    (c4): BSConvU(
      (pw): Conv2d(56, 28, kernel_size=(1, 1), stride=(1, 1), bias=False)
      (dw): Conv2d(28, 28, kernel_size=(3, 3), stride=(1, 1), padding=(1, 1), groups=28, padding_mode=reflect)
    )
    (act): GELU()
    (c5): Conv2d(112, 56, kernel_size=(1, 1), stride=(1, 1))
    (esa): MDSA(
      (body): Sequential(
        (0): ESA(
          (conv1): Conv2d(56, 14, kernel_size=(1, 1), stride=(1, 1))
          (conv_f): Conv2d(14, 14, kernel_size=(1, 1), stride=(1, 1))
          (conv2_0): BSConvU(
            (pw): Conv2d(14, 14, kernel_size=(1, 1), stride=(1, 1), bias=False)
            (dw): Conv2d(14, 14, kernel_size=(3, 3), stride=(2, 2), padding=(1, 1), groups=14, padding_mode=reflect)
          )
          (conv2_1): BSConvU(
            (pw): Conv2d(14, 14, kernel_size=(1, 1), stride=(1, 1), bias=False)
            (dw): Conv2d(14, 14, kernel_size=(3, 3), stride=(2, 2), padding=(1, 1), groups=14, padding_mode=reflect)
          )
          (conv2_2): BSConvU(
            (pw): Conv2d(14, 14, kernel_size=(1, 1), stride=(1, 1), bias=False)
            (dw): Conv2d(14, 14, kernel_size=(3, 3), stride=(2, 2), padding=(1, 1), groups=14, padding_mode=reflect)
          )
          (conv2_3): BSConvU(
            (pw): Conv2d(14, 14, kernel_size=(1, 1), stride=(1, 1), bias=False)
            (dw): Conv2d(14, 14, kernel_size=(3, 3), stride=(2, 2), padding=(1, 1), groups=14, padding_mode=reflect)
          )
          (maxPooling_0): MaxPool2d(kernel_size=3, stride=3, padding=1, dilation=1, ceil_mode=False)
          (maxPooling_1): MaxPool2d(kernel_size=5, stride=3, padding=0, dilation=1, ceil_mode=False)
          (maxPooling_2): MaxPool2d(kernel_size=7, stride=3, padding=1, dilation=1, ceil_mode=False)
          (conv_max_0): BSConvU(
            (pw): Conv2d(14, 14, kernel_size=(1, 1), stride=(1, 1), bias=False)
            (dw): Conv2d(14, 14, kernel_size=(3, 3), stride=(1, 1), padding=(1, 1), groups=14, padding_mode=reflect)
          )
          (conv_max_1): BSConvU(
            (pw): Conv2d(14, 14, kernel_size=(1, 1), stride=(1, 1), bias=False)
            (dw): Conv2d(14, 14, kernel_size=(3, 3), stride=(1, 1), padding=(1, 1), groups=14, padding_mode=reflect)
          )
          (conv_max_2): BSConvU(
            (pw): Conv2d(14, 14, kernel_size=(1, 1), stride=(1, 1), bias=False)
            (dw): Conv2d(14, 14, kernel_size=(3, 3), stride=(1, 1), padding=(1, 1), groups=14, padding_mode=reflect)
          )
          (conv3_0): BSConvU(
            (pw): Conv2d(14, 14, kernel_size=(1, 1), stride=(1, 1), bias=False)
            (dw): Conv2d(14, 14, kernel_size=(3, 3), stride=(1, 1), padding=(1, 1), groups=14, padding_mode=reflect)
          )
          (conv3_1): BSConvU(
            (pw): Conv2d(14, 14, kernel_size=(1, 1), stride=(1, 1), bias=False)
            (dw): Conv2d(14, 14, kernel_size=(3, 3), stride=(1, 1), padding=(1, 1), groups=14, padding_mode=reflect)
          )
          (conv3_2): BSConvU(
            (pw): Conv2d(14, 14, kernel_size=(1, 1), stride=(1, 1), bias=False)
            (dw): Conv2d(14, 14, kernel_size=(3, 3), stride=(1, 1), padding=(1, 1), groups=14, padding_mode=reflect)
          )
          (conv4): Conv2d(14, 56, kernel_size=(1, 1), stride=(1, 1))
          (sigmoid): Sigmoid()
          (GELU): GELU()
        )
      )
    )
    (cca): ECCA(
      (body): Sequential(
        (0): Conv2d(56, 56, kernel_size=(1, 1), stride=(1, 1), padding=same)
        (1): GELU()
        (2): CCALayer(
          (avg_pool): AdaptiveAvgPool2d(output_size=1)
          (conv_du): Sequential(
            (0): Conv2d(56, 3, kernel_size=(1, 1), stride=(1, 1))
            (1): ReLU(inplace=True)
            (2): Conv2d(3, 56, kernel_size=(1, 1), stride=(1, 1))
            (3): Sigmoid()
          )
        )
        (3): Conv2d(56, 56, kernel_size=(3, 3), stride=(1, 1), padding=same, groups=56)
      )
    )
  )
  (B8): EADB(
    (c1_d): Conv2d(56, 28, kernel_size=(1, 1), stride=(1, 1))
    (c1_r): BSConvU(
      (pw): Conv2d(56, 56, kernel_size=(1, 1), stride=(1, 1), bias=False)
      (dw): Conv2d(56, 56, kernel_size=(3, 3), stride=(1, 1), padding=(1, 1), groups=56, padding_mode=reflect)
    )
    (c2_d): Conv2d(56, 28, kernel_size=(1, 1), stride=(1, 1))
    (c2_r): BSConvU(
      (pw): Conv2d(56, 56, kernel_size=(1, 1), stride=(1, 1), bias=False)
      (dw): Conv2d(56, 56, kernel_size=(3, 3), stride=(1, 1), padding=(1, 1), groups=56, padding_mode=reflect)
    )
    (c3_d): Conv2d(56, 28, kernel_size=(1, 1), stride=(1, 1))
    (c3_r): BSConvU(
      (pw): Conv2d(56, 56, kernel_size=(1, 1), stride=(1, 1), bias=False)
      (dw): Conv2d(56, 56, kernel_size=(3, 3), stride=(1, 1), padding=(1, 1), groups=56, padding_mode=reflect)
    )
    (c4): BSConvU(
      (pw): Conv2d(56, 28, kernel_size=(1, 1), stride=(1, 1), bias=False)
      (dw): Conv2d(28, 28, kernel_size=(3, 3), stride=(1, 1), padding=(1, 1), groups=28, padding_mode=reflect)
    )
    (act): GELU()
    (c5): Conv2d(112, 56, kernel_size=(1, 1), stride=(1, 1))
    (esa): MDSA(
      (body): Sequential(
        (0): ESA(
          (conv1): Conv2d(56, 14, kernel_size=(1, 1), stride=(1, 1))
          (conv_f): Conv2d(14, 14, kernel_size=(1, 1), stride=(1, 1))
          (conv2_0): BSConvU(
            (pw): Conv2d(14, 14, kernel_size=(1, 1), stride=(1, 1), bias=False)
            (dw): Conv2d(14, 14, kernel_size=(3, 3), stride=(2, 2), padding=(1, 1), groups=14, padding_mode=reflect)
          )
          (conv2_1): BSConvU(
            (pw): Conv2d(14, 14, kernel_size=(1, 1), stride=(1, 1), bias=False)
            (dw): Conv2d(14, 14, kernel_size=(3, 3), stride=(2, 2), padding=(1, 1), groups=14, padding_mode=reflect)
          )
          (conv2_2): BSConvU(
            (pw): Conv2d(14, 14, kernel_size=(1, 1), stride=(1, 1), bias=False)
            (dw): Conv2d(14, 14, kernel_size=(3, 3), stride=(2, 2), padding=(1, 1), groups=14, padding_mode=reflect)
          )
          (conv2_3): BSConvU(
            (pw): Conv2d(14, 14, kernel_size=(1, 1), stride=(1, 1), bias=False)
            (dw): Conv2d(14, 14, kernel_size=(3, 3), stride=(2, 2), padding=(1, 1), groups=14, padding_mode=reflect)
          )
          (maxPooling_0): MaxPool2d(kernel_size=3, stride=3, padding=1, dilation=1, ceil_mode=False)
          (maxPooling_1): MaxPool2d(kernel_size=5, stride=3, padding=0, dilation=1, ceil_mode=False)
          (maxPooling_2): MaxPool2d(kernel_size=7, stride=3, padding=1, dilation=1, ceil_mode=False)
          (conv_max_0): BSConvU(
            (pw): Conv2d(14, 14, kernel_size=(1, 1), stride=(1, 1), bias=False)
            (dw): Conv2d(14, 14, kernel_size=(3, 3), stride=(1, 1), padding=(1, 1), groups=14, padding_mode=reflect)
          )
          (conv_max_1): BSConvU(
            (pw): Conv2d(14, 14, kernel_size=(1, 1), stride=(1, 1), bias=False)
            (dw): Conv2d(14, 14, kernel_size=(3, 3), stride=(1, 1), padding=(1, 1), groups=14, padding_mode=reflect)
          )
          (conv_max_2): BSConvU(
            (pw): Conv2d(14, 14, kernel_size=(1, 1), stride=(1, 1), bias=False)
            (dw): Conv2d(14, 14, kernel_size=(3, 3), stride=(1, 1), padding=(1, 1), groups=14, padding_mode=reflect)
          )
          (conv3_0): BSConvU(
            (pw): Conv2d(14, 14, kernel_size=(1, 1), stride=(1, 1), bias=False)
            (dw): Conv2d(14, 14, kernel_size=(3, 3), stride=(1, 1), padding=(1, 1), groups=14, padding_mode=reflect)
          )
          (conv3_1): BSConvU(
            (pw): Conv2d(14, 14, kernel_size=(1, 1), stride=(1, 1), bias=False)
            (dw): Conv2d(14, 14, kernel_size=(3, 3), stride=(1, 1), padding=(1, 1), groups=14, padding_mode=reflect)
          )
          (conv3_2): BSConvU(
            (pw): Conv2d(14, 14, kernel_size=(1, 1), stride=(1, 1), bias=False)
            (dw): Conv2d(14, 14, kernel_size=(3, 3), stride=(1, 1), padding=(1, 1), groups=14, padding_mode=reflect)
          )
          (conv4): Conv2d(14, 56, kernel_size=(1, 1), stride=(1, 1))
          (sigmoid): Sigmoid()
          (GELU): GELU()
        )
      )
    )
    (cca): ECCA(
      (body): Sequential(
        (0): Conv2d(56, 56, kernel_size=(1, 1), stride=(1, 1), padding=same)
        (1): GELU()
        (2): CCALayer(
          (avg_pool): AdaptiveAvgPool2d(output_size=1)
          (conv_du): Sequential(
            (0): Conv2d(56, 3, kernel_size=(1, 1), stride=(1, 1))
            (1): ReLU(inplace=True)
            (2): Conv2d(3, 56, kernel_size=(1, 1), stride=(1, 1))
            (3): Sigmoid()
          )
        )
        (3): Conv2d(56, 56, kernel_size=(3, 3), stride=(1, 1), padding=same, groups=56)
      )
    )
  )
  (c1): Conv2d(448, 56, kernel_size=(1, 1), stride=(1, 1))
  (GELU): GELU()
  (c2): BSConvU(
    (pw): Conv2d(56, 56, kernel_size=(1, 1), stride=(1, 1), bias=False)
    (dw): Conv2d(56, 56, kernel_size=(3, 3), stride=(1, 1), padding=(1, 1), groups=56, padding_mode=reflect)
  )
  (upsampler): PixelShuffleDirect(
    (upsampleOneStep): UpsampleOneStep(
      (0): Conv2d(56, 12, kernel_size=(3, 3), stride=(1, 1), padding=(1, 1))
      (1): PixelShuffle(upscale_factor=2)
    )
  )
)
2023-07-11 15:53:03,383 INFO: Loading MDRN model from F:\MDRN_train\pretrain_models\mdrn_x2.pth, with param key: [params_ema].
2023-07-11 15:53:03,436 INFO: Model [SRModel] is created.
2023-07-11 15:53:03,436 INFO: Testing Set5...
2023-07-11 15:53:06,290 INFO: Validation Set5
	 # psnr: 38.1094	Best: 38.1094 @ MDRN_test_X2 iter
…
